model.pth (torch, 5352 bytes, 8 tensors)

weight f4 [5, 3]
0	0x3dbbfe22	0.09179331
1	0xbe720076	-0.23632988
2	0x3ef61074	0.48059428
3	0x3f052158	0.52004004
4	0xbded5be3	-0.115897916
5	0xbe67e029	-0.22644104
6	0x3e04f361	0.12983467
7	0x3da7129a	0.08157845
8	0xbf0437fd	-0.5164793
9	0xbe19fc2f	-0.15037607
10	0xbe160db0	-0.14653659
11	0xbeb44438	-0.35208297
12	0x3ec3bfec	0.38232362
13	0x3b7e1add	0.0038773336
14	0x3de8112f	0.113314025

bias f4 [5]
0	0xbf065780	-0.52477264
1	0x3e95f662	0.29289538
2	0x3db75e16	0.08953492
3	0x3d6b17c8	0.057395726
4	0x3e85cf23	0.26134595

weight f4 [5, 5]
0	0x3ce6b48c	0.028162263
1	0xbdc3a853	-0.0955359
2	0xbe57083a	-0.20999232
3	0xbde0dc20	-0.109794855
4	0x3d3d3831	0.046196166
5	0x3e3d6e08	0.18499005
6	0xbdd376f4	-0.10325423
7	0x3ee23c36	0.44186562
8	0xbe991e14	-0.2990576
9	0x3dbf0530	0.09327161
10	0x3ea92a22	0.33039957
11	0xbe3f61dc	-0.18689674
12	0xbedbbfb0	-0.42919683
13	0xbee28df1	-0.44248918
14	0x3e1deaa0	0.15421534
15	0x3d44165b	0.047872882
16	0xbe89c617	-0.26908943
17	0x3d9dcaf8	0.07704729
18	0x3e93ec73	0.28891334
19	0x3ee84f29	0.45372894
20	0xbee21aff	-0.4416122
21	0xbe13615c	-0.14392608
22	0xbea13c23	-0.31491193
23	0x3e97b60c	0.29631078
24	0x3e35a9b0	0.17740512

bias f4 [5]
0	0x3e6b806a	0.22998205
1	0xbe2e6644	-0.17031199
2	0xbea5c9f0	-0.3238063
3	0x3e797ced	0.24364062
4	0xbe5e081b	-0.2168278

weight f4 [5, 5]
0	0xbe56029a	-0.2089943
1	0x3c062b60	0.008189052
2	0xbeb2c2ed	-0.34914342
3	0xbee5f05b	-0.4490994
4	0x3eb4712a	0.35242587
5	0x3ea1e35c	0.31618774
6	0x3ea264ee	0.31717628
7	0xbeb1559c	-0.34635627
8	0xbed31161	-0.41224197
9	0x3e9e4346	0.309107
10	0x3cbe9e0d	0.023268724
11	0xbd0febe8	-0.035137087
12	0x3e8e4952	0.27790314
13	0x3ec24615	0.37944093
14	0xbd26a800	-0.04068756
15	0xbe1451d8	-0.14484346
16	0x3e0d423c	0.13794798
17	0xbd852690	-0.06501496
18	0xbec5ef2c	-0.38659036
19	0xbe0754c8	-0.13215935
20	0xbede3546	-0.4340002
21	0xbe96a494	-0.29422438
22	0x3e7ebbfc	0.24876398
23	0x3e179cb8	0.14805877
24	0x3d343078	0.043991536

bias f4 [5]
0	0x3e8f252a	0.2795804
1	0x389f7000	7.6025724e-05
2	0x3ed37463	0.41299734
3	0x3d139a78	0.036035985
4	0xbda38410	-0.07984173

weight f4 [3, 5]
0	0x3e7c23b4	0.24622995
1	0xbcedd0a0	-0.029030144
2	0x3d53c6ee	0.051703386
3	0xbcae5270	-0.021279544
4	0xbecd219a	-0.40064698
5	0xbeb746aa	-0.357961
6	0x3d187c80	0.037228107
7	0x3e69929e	0.22809836
8	0xbec5d009	-0.3863528
9	0x3ddecd18	0.10878962
10	0xbe977a4f	-0.29585502
11	0xba001200	-0.0004885495
12	0x3ed8af59	0.4232128
13	0x3e8e172c	0.27752054
14	0x3e2e89d8	0.1704477

bias f4 [3]
0	0x3e9a950d	0.30191842
1	0x3ed0d3f9	0.40786722
2	0x3e31f896	0.17379984
